interpolation_module/best_model.pth (torch, 263019 bytes, 1 tensors)

conv1.weight f4 [256, 1, 16, 16]
0	0x3d7ffddd	0.062497962
1	0x3d80023b	0.062504254
2	0x3d7ffa03	0.06249429
3	0x3d800354	0.06250635
4	0x3d7ffb88	0.06249574
5	0x3d800075	0.06250087
6	0x3d8000a9	0.06250126
7	0x3d7fff05	0.062499065
8	0x3d80025e	0.062504515
9	0x3d7ff2de	0.062487476
10	0x3d8008b2	0.062516585
11	0x3d7ff00e	0.062484793
12	0x3d8005ba	0.06251092
13	0x3d7ffa15	0.062494356
14	0x3d800122	0.06250216
15	0x3d7ffef9	0.06249902
16	0x3d8001ba	0.06250329
17	0x3d7ff792	0.06249196
18	0x3d8005d3	0.06251111
19	0x3d7ff41d	0.062488664
20	0x3d8003ba	0.06250711
21	0x3d7fff5b	0.062499385
22	0x3d7ffd36	0.06249734
23	0x3d800166	0.06250267
24	0x3d7ff28e	0.062487178
25	0x3d8010c5	0.062531985
26	0x3d7fd6c2	0.06246067
27	0x3d801201	0.06253434
28	0x3d7fe87c	0.062477574
29	0x3d8005c9	0.062511034
30	0x3d7ffc7a	0.06249664
31	0x3d80007e	0.06250094
32	0x3d7ffbf7	0.06249615
33	0x3d8004fa	0.06250949
34	0x3d7ff3b7	0.062488284
35	0x3d80061a	0.06251164
36	0x3d7ff87c	0.062492833
37	0x3d800015	0.06250016
38	0x3d8001da	0.06250353
39	0x3d7ffbdb	0.062496047
40	0x3d8009db	0.0625188
41	0x3d7fd377	0.062457528
42	0x3d8019e9	0.06254942
43	0x3d7fd5e2	0.062459834
44	0x3d800c15	0.062523045
45	0x3d7ff6f5	0.062491376
46	0x3d800073	0.06250086
47	0x3d800058	0.062500656
48	0x3d8001d1	0.062503465
49	0x3d7ff7d6	0.062492214
50	0x3d80059e	0.062510714
51	0x3d7ff3fb	0.062488537
52	0x3d80049b	0.062508784
53	0x3d7ffdd3	0.062497925
54	0x3d7ffd30	0.062497318
55	0x3d800240	0.06250429
56	0x3d7fea4b	0.0624793
57	0x3d801721	0.062544115
58	0x3d7fce06	0.06245234
59	0x3d801280	0.062535286
60	0x3d7fef34	0.06248398
61	0x3d800158	0.06250256
62	0x3d800279	0.062504716
63	0x3d7ffc54	0.0624965
64	0x3d7ffd85	0.062497634
65	0x3d800319	0.06250591
66	0x3d7ff653	0.062490772
67	0x3d800519	0.06250972
68	0x3d7ff7c1	0.062492136
69	0x3d800186	0.062502906
70	0x3d8000d2	0.062501565
71	0x3d7ffc75	0.06249662
72	0x3d800940	0.06251764
73	0x3d7fdbc5	0.062465448
74	0x3d80110c	0.062532514
75	0x3d7fecdb	0.062481742
76	0x3d8000ab	0.062501274
77	0x3d800485	0.06250862
78	0x3d7ff282	0.062487133
79	0x3d8003c9	0.06250722
80	0x3d800125	0.06250218
81	0x3d7ffaab	0.062494915
82	0x3d8003de	0.062507376
83	0x3d7ffa92	0.06249482
84	0x3d8001ec	0.062503666
85	0x3d7fff62	0.06249941
86	0x3d7ffe18	0.062498182
87	0x3d8001a9	0.06250317
88	0x3d7ff2f3	0.062487554
89	0x3d800ad2	0.06252064
90	0x3d7fef43	0.062484037
91	0x3d8001c5	0.062503375
92	0x3d8005a3	0.06251075
93	0x3d7fed9c	0.06248246
94	0x3d800a3c	0.06251952
95	0x3d7ff62b	0.062490623
96	0x3d7ffd2a	0.062497295
97	0x3d8003b1	0.06250704
98	0x3d7ff759	0.06249175
99	0x3d8002bd	0.06250522
100	0x3d7ffccd	0.06249695
101	0x3d7fffda	0.06249986
102	0x3d800127	0.0625022
103	0x3d7ffd0b	0.06249718
104	0x3d80035f	0.06250643
105	0x3d7ff6d9	0.06249127
106	0x3d8002b5	0.06250516
107	0x3d8001b3	0.06250324
108	0x3d7ff2c5	0.062487382
109	0x3d8008af	0.06251656
110	0x3d7fef41	0.06248403
111	0x3d8003ac	0.062507
112	0x3d800146	0.06250243
113	0x3d7ffa2f	0.062494453
114	0x3d8003ae	0.06250702
115	0x3d7ffa25	0.062494416
116	0x3d800221	0.06250406
117	0x3d7ffe34	0.062498286
118	0x3d7fffdb	0.062499862
119	0x3d80007f	0.062500946
120	0x3d7ffec6	0.06249883
121	0x3d8000bc	0.0625014
122	0x3d7ffee1	0.06249893
123	0x3d7ffecd	0.062498856
124	0x3d80027e	0.06250475
125	0x3d7ff955	0.06249364
126	0x3d800358	0.06250638
127	0x3d7ffd49	0.06249741
128	0x3d7ff469	0.062488947
129	0x3d800dc6	0.06252627
130	0x3d7fdad4	0.06246455
131	0x3d801522	0.06254031
132	0x3d7fd600	0.062459946
133	0x3d80122e	0.062534675
134	0x3d7fe4fb	0.062474232
135	0x3d8005cd	0.062511064
136	0x3d7ffd22	0.062497266
137	0x3d800167	0.062502675
138	0x3d7ffe2d	0.06249826
139	0x3d800131	0.06250227
140	0x3d7ffb15	0.06249531
141	0x3d80035c	0.06250641
142	0x3d7ff98c	0.062493846
143	0x3d800167	0.062502675
144	0x3d800d20	0.062525034
145	0x3d7fbdf6	0.06243702
146	0x3d802dce	0.062587366
147	0x3d7f96b7	0.062399592
148	0x3d80350f	0.0626012
149	0x3d7fa19e	0.06240999
150	0x3d80235f	0.062567465
151	0x3d7fe246	0.06247165
152	0x3d80033a	0.062506154
153	0x3d7ff682	0.062490948
154	0x3d80053f	0.062510006
155	0x3d7ff316	0.062487684
156	0x3d80088d	0.06251631
157	0x3d7febfc	0.06248091
158	0x3d8008c2	0.062516704
159	0x3d7ff878	0.062492818
160	0x3d7fdd96	0.06246718
161	0x3d802c08	0.06258398
162	0x3d7f83c7	0.062381532
163	0x3d8048c0	0.06263876
164	0x3d7f6a9c	0.06235753
165	0x3d804401	0.06262971
166	0x3d7f9aec	0.062403604
167	0x3d8014d4	0.06253973
168	0x3d7ff54c	0.062489793
169	0x3d80092c	0.062517494
170	0x3d7fe935	0.062478263
171	0x3d800d89	0.062525816
172	0x3d7fe194	0.062470987
173	0x3d800fdc	0.06253025
174	0x3d7fe674	0.062475637
175	0x3d800565	0.06251029
176	0x3d801218	0.06253451
177	0x3d7fa249	0.062410627
178	0x3d804378	0.06262869
179	0x3d7f5fc7	0.0623472
180	0x3d805411	0.062660344
181	0x3d7f66a1	0.062353734
182	0x3d803857	0.06260746
183	0x3d7fd0fd	0.062455166
184	0x3d80076b	0.06251415
185	0x3d7fe4fe	0.062474243
186	0x3d801137	0.062532835
187	0x3d7fd83a	0.06246207
188	0x3d8014b1	0.062539466
189	0x3d7fd7e8	0.062461764
190	0x3d80102d	0.06253085
191	0x3d7ff1c5	0.06248643
192	0x3d7fdee2	0.062468417
193	0x3d802c29	0.06258423
194	0x3d7f7e71	0.062376443
195	0x3d804dda	0.06264849
196	0x3d7f5c3d	0.062343825
197	0x3d804b4a	0.0626436
198	0x3d7f9015	0.062393267
199	0x3d8017eb	0.06254562
200	0x3d7feea0	0.06248343
201	0x3d800fb5	0.06252996
202	0x3d7fd8e3	0.0624627
203	0x3d8015b4	0.062541395
204	0x3d7fd4eb	0.062458914
205	0x3d8014a2	0.062539354
206	0x3d7fdf77	0.062468972
207	0x3d800712	0.062513486
208	0x3d800d59	0.06252546
209	0x3d7fb5df	0.062429305
210	0x3d80387f	0.06260776
211	0x3d7f78da	0.062371112
212	0x3d8046b8	0.062634885
213	0x3d7f7c66	0.062374495
214	0x3d8031ae	0.06259476
215	0x3d7fd59e	0.06245958
216	0x3d8007f0	0.06251514
217	0x3d7fe54f	0.062474545
218	0x3d800fde	0.062530264
219	0x3d7fdda7	0.062467244
220	0x3d801170	0.06253326
221	0x3d7fdf07	0.062468555
222	0x3d800d1a	0.06252499
223	0x3d7ff46e	0.062488966
224	0x3d7fee87	0.062483337
225	0x3d801a3f	0.06255006
226	0x3d7faf3e	0.062422983
227	0x3d80306a	0.06259234
228	0x3d7f9a2a	0.06240288
229	0x3d80302e	0.062591895
230	0x3d7fb8d8	0.06243214
231	0x3d800eca	0.06252821
232	0x3d7ff6fe	0.06249141
233	0x3d80076d	0.06251416
234	0x3d7fef6a	0.062484182
235	0x3d800a28	0.06251937
236	0x3d7feb58	0.0624803
237	0x3d800a03	0.062519096
238	0x3d7ff10f	0.06248575
239	0x3d8003b8	0.06250709
240	0x3d8002b9	0.06250519
241	0x3d7fec4c	0.06248121
242	0x3d800fca	0.062530115
243	0x3d7fda3b	0.06246398
244	0x3d8014a2	0.062539354
245	0x3d7fd8d1	0.06246263
246	0x3d800e84	0.06252769
247	0x3d7ff49f	0.06248915
248	0x3d8001c3	0.06250336
249	0x3d7ffb83	0.06249572
250	0x3d800299	0.062504955
251	0x3d7ff96c	0.062493727
252	0x3d8003cc	0.06250724
253	0x3d7ff91d	0.062493432
254	0x3d8002f0	0.0625056
255	0x3d7ffc7a	0.06249664
